model2.pth (torch, 36746 bytes, 6 tensors)

embedding.weight f4 [6, 32]
000000 c6 1a 8d bf 9e 2d de 3f 90 0b 3b 3f 64 4b 0a bf
       -1.1023796 1.7357671 0.7306452 -0.54021287
000010 cf 2f 1f bf 5f 7f 0b c0 8b a0 eb 3f e2 bf d9 3f
       -0.62182325 -2.179649 1.8408369 1.7011683
000020 0a e1 96 3e 4e 97 54 bf 00 b2 83 be 9c 54 bb be
       0.29468566 -0.8304337 -0.2572174 -0.3658799
000030 fe 82 ae 3f c1 29 57 3f 5b 0b 41 bf 8d dd 96 be
       1.3633726 0.84048086 -0.7540795 -0.29465905
000040 eb c0 a4 3f 61 82 79 bf 03 ca 01 3f ba 1c c4 3e
       1.2871374 -0.9746457 0.5069887 0.38303167
000050 71 77 40 bf 17 fa 24 3f 55 05 94 be 80 4c 47 3f
       -0.75182253 0.64444107 -0.28910318 0.77851105
000060 63 dd 50 3f 10 f8 c4 bd 44 bf 21 bf a6 da 3d 3d
       0.8158781 -0.09617627 -0.63182473 0.046351098
000070 8f ee 62 bf a0 59 93 3f 15 fe 8a be 28 78 06 be
       -0.8864526 1.1511726 -0.27146974 -0.13131773
000080 55 2f 20 bf 3c 26 b3 3f 3b 2b b8 3f 6b 7a c8 bf
       -0.6257222 1.3996043 1.4388193 -1.5662359
000090 5d 34 25 3f 05 0e 9e 3d b6 64 66 bf 27 b8 8b bf
       0.64533025 0.07717518 -0.8999742 -1.0915574
0000a0 dc 6b 3a 3f 3d 99 09 3f bd 33 8d 3e f6 a7 df 3f
       0.7282083 0.5374945 0.27578536 1.7473133
0000b0 e4 75 03 bf fd 05 81 be 00 5b 44 be d9 c4 71 bf
       -0.5135176 -0.2519988 -0.19175339 -0.9444099
0000c0 31 5e 97 be 9a 28 1a 40 6e 5b f3 3d de ea de bf
       -0.2956405 2.4087281 0.11882673 -1.7415426
0000d0 d6 74 11 3f 74 05 56 bf 10 1c 89 bf 5f 22 e9 3f
       0.568189 -0.8360207 -1.0711689 1.8213614
0000e0 c7 f4 07 3f d0 6d 23 bf cc 73 ac bf 34 dc d9 3e
       0.53107876 -0.63839436 -1.3472838 0.42550814
0000f0 fa 0e c5 be d0 d6 28 bf bc 50 c0 bf a6 c6 28 bf
       -0.3848799 -0.6595278 -1.5024638 -0.65928113
000100 11 d2 25 3f 0a 82 13 3f b5 92 1f 3f b1 2b 66 bf
       0.6477366 0.576203 0.6233323 -0.8991042
000110 a7 c0 b1 be 6d 3a 96 bf 4f 1f 13 bd e9 82 b2 3f
       -0.34717295 -1.173658 -0.03591853 1.3946201
000120 ef 8e 13 3f 71 40 83 3e d8 86 44 bf f2 f7 e0 3f
       0.57639974 0.25635102 -0.76768255 1.7575667
000130 83 bd 57 3f 37 b5 6e bf 45 65 b1 bf 17 43 50 3f
       0.84273547 -0.9324526 -1.385903 0.8135237
000140 54 26 fc 3c 26 92 b7 3f 6d 64 ba be 33 3f 80 3f
       0.030779995 1.4341476 -0.36404744 1.0019287
000150 b2 c3 83 3f 1f 54 a1 bf 22 51 16 3f de 49 71 bf
       1.0294096 -1.2603797 0.5871755 -0.9425334
000160 5a 27 9d bf 8c b6 8e bd c4 ff 3a be 21 d8 71 bd
       -1.2277634 -0.06968412 -0.1826163 -0.059044007
000170 cc 23 c4 3f 94 fd 46 bf 09 bf 8b be f9 45 9d bf
       1.5323424 -0.7773068 -0.27294186 -1.2286979
000180 4b 09 bb be d2 43 f3 be 25 4c ae 3f 57 65 f7 3e
       -0.36530527 -0.4751268 1.3616987 0.48319504
000190 f0 f0 2e bf de 6e 41 bf ce da 86 bf 54 91 75 3f
       -0.6833639 -0.75559795 -1.0535524 0.9592488
0001a0 d4 0b 27 3d dd 54 a1 bf 4f 47 88 bf d3 1f 80 3f
       0.040782765 -1.2604023 -1.0646762 1.0009712
0001b0 52 37 13 bf a3 71 f2 bd f9 a9 32 3f 1a dd 4a bf
       -0.5750629 -0.11838081 0.6979061 -0.79243624
0001c0 4a d7 48 be ec 24 5f bf 49 13 5e bf 03 68 37 bc
       -0.19613376 -0.87165713 -0.86748177 -0.011194232
0001d0 ff b0 f7 be af 80 34 bf 75 4b 7c 3e ba 7e 5f 3d
       -0.48377225 -0.70508856 0.2463816 0.054564215
0001e0 0b 6c b6 3f f0 e8 0c c0 55 cb fa be 30 aa 85 bf
       1.4251722 -2.2017174 -0.48983255 -1.0442562
0001f0 1f ad a7 3f a3 e9 88 3e 10 32 81 3e e9 55 22 bd
       1.3099707 0.2674075 0.25233507 -0.03963271
000200 c1 2d e6 bf 00 31 7e bf d4 03 0d bf 0e 4e 70 bf
       -1.7982713 -0.9929352 -0.55083966 -0.938691
000210 62 c0 c3 3e 02 77 c5 3f be ab d6 3e d4 21 1a bf
       0.38232714 1.5426943 0.41927904 -0.6020787
000220 75 71 1d bf 84 1a fa bd 2e f6 f1 bf 63 9a 87 bf
       -0.61501247 -0.12212089 -1.8903253 -1.059399
000230 7f a7 01 bd 5d bb ab bf 90 de 97 bf 70 66 03 bf
       -0.031653877 -1.3416554 -1.1864796 -0.5132818
000240 95 bf 0a bf c5 52 c3 3e 24 52 c4 3e bc 54 53 bf
       -0.5419858 0.38149086 0.38343918 -0.8255117
000250 07 e3 cf bf fd d5 0a 3e 74 f8 a6 bf 58 3b 2f c0
       -1.6241158 0.13558193 -1.3044572 -2.737997
000260 7e e8 47 3f 24 9a 28 bf 91 74 c2 be 2e 26 78 bf
       0.7808913 -0.658602 -0.37979558 -0.9693326
000270 49 5b 91 3f a7 59 1e 3f b5 5e 14 3f 13 ff eb 3c
       1.1355983 0.6185555 0.5795701 0.028808152
000280 c3 82 ae bf 4c 7a 4d bf b4 4b 24 be d0 bc 2a 3c
       -1.3633655 -0.80264735 -0.16044503 0.010420993
000290 98 1d 12 3f 46 bf 9f bf a8 b6 7d 3f e1 1b 50 bf
       0.57076406 -1.2480247 0.99106836 -0.8129254
0002a0 dd ed 02 3f 5b 4b 1c 3f da ba da 3e 65 6d 97 3f
       0.511442 0.61052483 0.4272068 1.183026
0002b0 33 58 a2 3f 0f 9c 80 3f 70 2f 62 bf 85 7c 45 bf
       1.2683166 1.0047625 -0.88353634 -0.77143127
0002c0 f8 c4 22 be 2a 58 ab 3f 0f f7 80 bf 7a c4 64 bf
       -0.1589545 1.338628 -1.0075396 -0.893623
0002d0 63 1a ae bf 11 03 c4 bf 8c 99 b5 be 28 4a fe 3f
       -1.3601803 -1.5313436 -0.3546871 1.9866381
0002e0 69 45 3a bf 84 5b 8a bf b3 79 5a bf 66 fb ed bf
       -0.7276216 -1.0809178 -0.8534195 -1.8592346
0002f0 32 47 01 40 dd 0b eb 3e 1a ce af bf 89 1a 10 be
       2.0199704 0.45907488 -1.3734772 -0.14072622

lstm.weight_ih_l0 f4 [128, 32]
000000 f0 27 0f 3e 1d 61 4e bb 5f cf 2f 3d 56 8c 4c 3e
       0.13980079 -0.003149099 0.042922374 0.19975409
000010 6b 8f 90 bd 9e 44 f5 bd 19 8e 79 3c 7f f3 4f be
       -0.07058605 -0.11975978 0.015231633 -0.2030773
000020 60 0d 82 be 8b 2f 0c be 54 1d 28 3e 4a 5f 09 3d
       -0.2540083 -0.13690011 0.16417438 0.03353814
000030 14 30 2e be 64 ea a4 3d 84 02 0c bd 57 56 d0 bd
       -0.17010528 0.08052519 -0.034182087 -0.10172718
000040 73 eb b4 3d e6 9a 7c 3d 05 c3 80 3d e7 1c 45 3e
       0.08833971 0.06167116 0.06287197 0.19249307
000050 14 33 72 bb 31 9d ab bd e7 c4 99 3e 04 3b 9f bb
       -0.0036956714 -0.08379591 0.30033037 -0.00485933
000060 ee 8d 3c be f6 43 d7 3c 2c 8f 20 bd 10 b1 de bd
       -0.18413517 0.026277523 -0.03919904 -0.10873616
000070 ba 01 f8 3d 82 24 2c bd 2f 18 2b 3e 6e d3 d0 3d
       0.12109704 -0.042027004 0.16708444 0.10196577
000080 46 81 8a 3d b6 c2 cb 3d 10 ac 22 3d 8a c7 3f be
       0.06762938 0.099492475 0.039714873 -0.18728462
000090 44 40 0c 3e 0d 86 f9 bd b4 90 98 bd 45 66 b0 bc
       0.1369639 -0.12183771 -0.07449475 -0.02153314
0000a0 61 16 85 bc bc a0 2c be 19 1b 95 be 06 fc 45 3e
       -0.016246023 -0.1685819 -0.29122236 0.1933442
0000b0 84 7c 1b bd 33 56 cd bd 1d d0 b6 bd 2c 9c 2e bd
       -0.037960544 -0.10026207 -0.08926413 -0.042629406
0000c0 03 be 2b be ad 47 a7 bc ec 6b de 3c f6 ad 29 be
       -0.16771702 -0.02041992 0.02715107 -0.16570267
0000d0 66 f0 48 be 29 61 22 be d9 7d 5c be 92 fe e8 3b
       -0.19622955 -0.15857376 -0.21532382 0.0071104253
0000e0 f4 32 47 3e c5 d6 4a be ab 5e 15 be 02 9c 44 be
       0.19453031 -0.1980849 -0.14586894 -0.19200137
0000f0 b8 ea 56 3e a8 53 35 be 92 65 cc bd 4b 75 30 be
       0.20987976 -0.17707694 -0.099803105 -0.17232244
000100 7f 94 7d 3d 56 da 31 bd 4e 06 88 3d 35 57 17 be
       0.061909195 -0.043421112 0.066418275 -0.1477936
000110 d7 98 5b be 34 fc cb bd 90 f8 7f bd 24 6e 43 bd
       -0.21445023 -0.09960213 -0.062492907 -0.04771246
000120 48 cd ae 3e 1f 55 d6 3c 36 83 19 3e fa 28 86 3e
       0.34140992 0.026163636 0.14991459 0.26203138
000130 74 ba 3c 3e 68 e7 79 3e ec 42 5e bc 48 15 c4 3d
       0.18430501 0.2440468 -0.01356576 0.095743716
000140 13 bf 4d 3e ee 59 c9 bd ae 64 d7 3d 70 2a dd bc
       0.2009242 -0.09831606 0.1051725 -0.026997775
000150 fd d8 b3 3d 09 fb ed 3a bd be 31 3c 95 12 9b 3e
       0.087816216 0.0018156479 0.010848698 0.30287614
000160 9a d0 46 be 31 51 06 3d 52 14 2d be 2d 36 80 3d
       -0.19415513 0.032792274 -0.16902283 0.06260333
000170 fb 89 2b be 43 bf 19 bc 4f 26 a0 bc 86 1e be bd
       -0.16751854 -0.009383979 -0.019549517 -0.09283166
000180 6b 68 59 3e 1d 5c 86 be 8d 6b 6e be 59 47 a9 3e
       0.21231239 -0.26242152 -0.23283215 0.33062246
000190 e1 b6 80 3d 59 98 55 3e 9d de 28 bc 46 54 9d be
       0.062848814 0.20858897 -0.010306981 -0.30728358
0001a0 02 dc 2c be 0b f9 61 3e 6f e0 0f 3e 1b ce f9 bd
       -0.16880801 0.22067659 0.14050458 -0.121975146
0001b0 c4 01 3c be a6 4e 56 be 6c b6 ff 3d a1 e2 05 3e
       -0.18360049 -0.2092844 0.12485966 0.13074733
0001c0 cb 78 31 be 2a 7d 30 be 5f 54 c4 3b c7 f5 c8 bd
       -0.17331235 -0.17235246 0.005991503 -0.09812503
0001d0 71 aa 50 3d ab 08 42 3e 66 d5 1c 3e 02 e4 c9 be
       0.050943796 0.18948619 0.1531578 -0.3943177
0001e0 48 23 51 bd 11 96 8b be 5c 1a 77 3e 54 0f c4 be
       -0.051059037 -0.2726293 0.24131149 -0.38292944
0001f0 9b 63 ee 3c ee e8 37 be 57 41 bc 3d 39 27 73 3e
       0.02910023 -0.1795995 0.0919215 0.23745431
000200 27 ec 05 bd 53 79 fd bd c8 85 d2 3d cc 2c 8e bd
       -0.032695916 -0.123766564 0.10279423 -0.06942138
000210 45 4d ad 3a 66 2e ab 3d e9 46 02 be 42 89 0a 3e
       0.0013221881 0.08358459 -0.12722363 0.13528922
000220 b0 98 a6 3c 35 93 a7 3c a0 74 d0 be c7 f0 be bd
       0.020336479 0.020455936 -0.40713978 -0.093232684
000230 ef ad 05 3d 2b 55 5c bd b4 25 e8 3d 35 2a 7c bd
       0.03263658 -0.05379216 0.11335316 -0.06156369
000240 f6 bd d6 bd ea 68 81 bd 75 61 09 be 25 07 c7 bd
       -0.10485451 -0.06318839 -0.13416083 -0.097181596
000250 b1 aa b7 3d 0c 0d 91 bd ba d1 b7 bd a6 8f da 3d
       0.08968104 -0.070825666 -0.08975549 0.1067193
000260 92 ca cf 3d fa c4 a6 be 82 06 fd 3c 5e a0 40 be
       0.10146059 -0.32572156 0.030886892 -0.18811175
000270 ea f0 dd 3d 3f 44 8d 3d 21 16 0d 3e 15 6f b0 bd
       0.10836966 0.068977825 0.13777973 -0.08614937
000280 ad d0 b7 be 8f 6a d0 3d 1a e1 4d 3e a4 c6 78 bd
       -0.35901394 0.101765744 0.201054 -0.060736313
000290 e9 76 93 3e 05 8a 6e be 53 c7 2c bd 42 8a 31 bd
       0.2880166 -0.23294838 -0.042182278 -0.043344744
0002a0 a8 eb 2b 3e e2 c3 5c bd c5 a4 3c be a7 99 bc 3d
       0.16789114 -0.053897746 -0.1842223 0.09208994
0002b0 0a 2a 63 3c 93 c1 0c be 64 13 9a be eb 2f 91 bb
       0.013865003 -0.13745718 -0.3009292 -0.004430761
0002c0 d9 48 9c be 9e 96 19 3e e1 74 9f ba 60 e7 4a bd
       -0.30524328 0.14998862 -0.001216557 -0.049537063
0002d0 b3 2d b0 be 99 e6 a2 be 37 14 0f be 97 0e aa be
       -0.34409866 -0.31816557 -0.13972555 -0.33214256
0002e0 c9 2d 58 bd 82 d4 74 bc 10 4d 89 be 88 a7 89 be
       -0.05277804 -0.014943244 -0.26816607 -0.2688563
0002f0 0c ca cf 3d 66 f6 b6 bd b6 d2 3e 3d a6 04 a0 be
       0.10145959 -0.089337155 0.04658767 -0.31253546
000300 d6 8e 76 3e 68 e5 4a be 83 da 32 3d 21 64 1f 3e
       0.24077925 -0.19814074 0.04366542 0.1556554
000310 82 fd 19 3e 35 13 42 3e c9 8c 25 be 2a 31 5d 3d
       0.15038112 0.1895264 -0.16166987 0.054001965
000320 4d 85 5c be d3 82 4b bb 5d ed 95 3a 2f da 61 bc
       -0.21535225 -0.003105332 0.0011438538 -0.013784929
000330 fa 6b 47 be fb 60 59 3d 0f fe 0f 3e b2 ea 8d bd
       -0.19474784 0.053071003 0.1406176 -0.0692953
000340 fb cf 12 be 0c 4c 33 bc 0d 44 09 3e 23 a4 f7 bd
       -0.14337151 -0.010943424 0.13404866 -0.120918535
000350 62 88 d5 bc 4a b3 7a bd fc 0a 47 3e 66 81 d6 3d
       -0.026066009 -0.06120614 0.19437784 0.104738995
000360 60 9b d5 bd 40 94 cb bd 9d c4 b7 3d 0c c9 a6 bd
       -0.10430026 -0.09940386 0.08973048 -0.081438154
000370 cc 0a 2c 3e 50 81 95 3d 04 6d 85 3e fe 98 9c 3e
       0.16800994 0.07300055 0.26059735 0.30585474
000380 95 ad 6c be 4a ca 08 3c 77 7e b6 3e 18 32 b2 bd
       -0.23113091 0.008349011 0.3564336 -0.08700961
000390 06 aa 15 be e9 3d 39 bb fa fc 72 bd 88 ad 62 3e
       -0.1461564 -0.002826566 -0.05932329 0.2213651
0003a0 be 38 7c 3e 2b 81 6f 3d e3 f0 9f be 1e ad 57 3e
       0.2463102 0.058472794 -0.3123847 0.21062133
0003b0 28 45 8b 3d 69 d4 25 3c 35 1e 53 be fd 62 03 be
       0.068003 0.010121443 -0.20616992 -0.1283073
0003c0 41 4f 66 3c ad 0e 5c 3d 23 f3 bb 3c 53 ad 11 be
       0.014056982 0.053724933 0.022943085 -0.14226274
0003d0 b6 de 5c bd 9c ce 55 be b3 b6 bb bd 5b 82 11 3e
       -0.05392333 -0.20879596 -0.091657065 0.14209883
0003e0 92 f9 34 bc 25 a1 e8 be 5f 9a 9c be 9c 15 e9 bc
       -0.01104583 -0.45435444 -0.30586526 -0.028452687
0003f0 33 4f 87 3d 18 cb 10 3e cd e2 8c bb f2 52 1c be
       0.06606903 0.14139974 -0.0042994977 -0.15266016

lstm.weight_hh_l0 f4 [128, 32]
000000 e0 5c 73 be d2 c3 25 3d ac 6c 10 be 0c 86 ce be
       -0.23765898 0.040469952 -0.14103955 -0.40336645
000010 d3 f2 4f be 64 1c 1c 3e b9 50 74 3e f2 4d 91 bc
       -0.20307474 0.15245205 0.23858918 -0.017737363
000020 7d 18 bc bd d9 3d 6b 3d 19 14 57 bf 61 7b 79 be
       -0.09184358 0.05743203 -0.8401504 -0.24363472
000030 ce 0c ee bb 50 ba 73 3e 5f 3e 93 3e e8 40 2f 3d
       -0.00726471 0.23801541 0.28758523 0.04278651
000040 28 10 6a be 44 26 17 bf f7 3a c0 3d 86 a1 a3 3d
       -0.22857726 -0.59042764 0.09386247 0.079897925
000050 1e 72 80 be de 66 1a be 23 9b 94 bd 8b 4f 9a 3d
       -0.25087065 -0.15078303 -0.072561525 0.07534703
000060 a4 05 d6 bd fe 35 f7 bc 6e 8c bd 3e cb 7a 3d be
       -0.104502946 -0.030177113 0.37021202 -0.18503873
000070 60 01 23 bd 7c 20 42 3e 16 d7 3f be 48 ce e8 bc
       -0.039796233 0.18957704 -0.18734393 -0.028418675
000080 1f 74 7d be b1 de 29 3d 91 a8 f1 3d c5 4c 4c bd
       -0.24751328 0.04147214 0.117997296 -0.0498779
000090 9d a2 27 3e c9 9a 97 bd e8 28 3e 3f 24 6b f9 3c
       0.16370626 -0.0740257 0.7428117 0.030446596
0000a0 8d d4 eb bd 86 69 23 be 17 61 5e bf 8b 13 17 3d
       -0.1151515 -0.15958223 -0.868669 0.036883872
0000b0 14 a7 b5 ba f0 e3 03 be d4 08 93 3e a9 06 3b 3d
       -0.0013858997 -0.1287992 0.28717673 0.04566065
0000c0 2d d9 c8 bd b4 ff 5d be 7b 7e 28 3e 97 d4 cb bd
       -0.09807048 -0.21679574 0.16454498 -0.09952658
0000d0 49 e3 e2 3d 3e e8 23 3e 33 a3 84 3d 06 6a b5 3d
       0.110785075 0.16006562 0.0647644 0.08858113
0000e0 b6 7c d0 bc d8 85 76 3d 69 72 25 be d1 c2 54 3c
       -0.025450092 0.060186237 -0.16156925 0.012985901
0000f0 62 e8 17 be cd 0a 6c 3e 7a 4b 87 bd e0 70 08 3d
       -0.14834741 0.23050995 -0.06606193 0.03331077
000100 57 f7 bd bb 15 f7 34 be e4 58 cc 3c 3d 70 24 3e
       -0.0057973075 -0.1767238 0.02494473 0.1605844
000110 b2 6e 9c bc 93 5f e5 3d 94 7b 6d 3e f9 94 28 be
       -0.019095752 0.1119987 0.23191673 -0.16463079
000120 a2 a4 24 be 71 18 1b bd ef 9e bb 3d 51 f5 e4 3d
       -0.16078427 -0.037865106 0.091611736 0.11179603
000130 56 f8 bc 3d f8 98 46 be 65 1e 27 3c 82 0f 60 3e
       0.09227054 -0.1939429 0.010200118 0.21880916
000140 0f 4c 3f 3e 95 9d 32 3d df 49 f9 3d ba 91 26 bd
       0.18681358 0.043607313 0.12172293 -0.04066632
000150 f7 cb 85 3d d9 b7 36 3e bf 1d 23 3e e0 76 e6 bc
       0.06533044 0.1784357 0.15929316 -0.028132856
000160 6a b3 50 3d 3f 33 08 3d f2 a0 01 3d 9f a8 4e 3e
       0.050952353 0.033251997 0.03164763 0.20181511
000170 75 07 0c 3e 65 ab 0a be d6 a8 19 be 9b 39 79 3e
       0.1367472 -0.13541944 -0.15005812 0.24338381
000180 ea 89 a4 bc 7d 7f d8 3d 81 3c 51 be 7b b5 de 39
       -0.020085294 0.105711915 -0.20433237 0.00042478353
000190 0f 7c 82 be 45 c5 c1 3e 86 ec 6a be 14 cb 81 3e
       -0.25485274 0.37845817 -0.22941789 0.2535025
0001a0 8b 14 69 3e 6e 20 8b 3e 65 41 ff bd 77 5a 8e be
       0.22761743 0.2717318 -0.12463645 -0.27803394
0001b0 f6 0d 35 be 16 40 37 bd 06 12 31 bd 21 37 ce be
       -0.17681107 -0.04473885 -0.04323008 -0.40276435
0001c0 cd 7b 32 be 81 ae 8c be 9a 6c 93 be 0e 72 d2 3d
       -0.17430039 -0.27476886 -0.28793794 0.102756605
0001d0 cc 92 19 be 4e 23 bf be 6e 4a 35 3d 35 45 ec 3d
       -0.14997405 -0.37331623 0.044260435 0.11536638
0001e0 ff a4 73 be 5e 5c 60 3e 7f 67 7b 3e 9c 79 2a bc
       -0.2379341 0.21910235 0.245512 -0.0104049705
0001f0 de 64 99 3e db 9d d2 3d 09 a3 16 be eb 71 49 be
       0.29959768 0.10284015 -0.1471063 -0.19672363
000200 0e d8 0a bd 42 85 e4 bb 1e 44 21 3e 71 6a 1c be
       -0.033897452 -0.0069738934 0.15748641 -0.15274979
000210 69 25 3e 3d 37 c8 59 be 9d ed 18 be 1e 58 1d be
       0.046422396 -0.21267782 -0.14934392 -0.15365645
000220 45 60 53 be ea c1 f1 bd 78 f2 25 be e4 dd 31 bd
       -0.20642193 -0.11804564 -0.16205776 -0.043424502
000230 07 5c b7 3c 9f 15 16 bd 8a 4a 7a 3e 6f a9 35 3e
       0.02238275 -0.036641713 0.24442497 0.17740415
000240 56 33 f6 3b 29 ae 57 be ef 44 94 bc a7 7b a4 be
       0.007513444 -0.2106253 -0.018099276 -0.3212559
000250 6e 3c 19 3e d4 a9 e7 3d 3f 5b 28 3e e9 35 0d be
       0.14964458 0.11311689 0.16441058 -0.13790096
000260 17 9e da 3d 55 ea 6a be 8d 26 4d bc 1d a7 77 3e
       0.106746845 -0.22940953 -0.012521398 0.24184842
000270 90 64 04 bd 22 58 02 be e0 5e 74 3d 61 bc bc bc
       -0.032322466 -0.12728932 0.059660792 -0.023039045
000280 bd 86 11 3e 03 b3 54 be e7 02 f5 3d 94 96 1c bc
       0.14211555 -0.20771413 0.11963444 -0.009557385
000290 6f 7a 95 3b 4d 1f 81 3c a3 50 d0 3c a9 7c 9f be
       0.0045617144 0.015761996 0.025429076 -0.31149796
0002a0 62 db 33 bd 53 82 46 be 04 d3 a6 be aa 94 cd 3c
       -0.04391039 -0.19385652 -0.32582867 0.025095303
0002b0 2e 25 1e 3e de ff cb bd 10 98 87 be 73 84 26 3d
       0.1544387 -0.09960912 -0.26483202 0.040653657
0002c0 48 12 7d 3e 38 d7 c1 3e 0e dc 54 3d fc 1d 67 3d
       0.24714005 0.3785951 0.051967673 0.05642508
0002d0 a5 83 1b 3d 1d 20 8f 3e 52 ae 49 3e 3c 3b c6 bb
       0.037967343 0.27954188 0.19695404 -0.0060495418
0002e0 5c fc 32 3e aa e8 55 be 83 8c 02 3f 03 3e 3b 3e
       0.1747908 -0.20889536 0.50995654 0.18285374
0002f0 85 8d 61 3d 3f a6 8b bd 16 bc 32 3e 34 f4 43 3d
       0.055066604 -0.06818818 0.17454562 0.047840312
000300 53 01 4a be e7 f0 a7 bd 95 4e 8d 3d 64 47 2c bd
       -0.19727068 -0.08200245 0.06899754 -0.04206027
000310 90 93 f0 bd 84 a3 48 3e 14 36 19 be c7 8e 74 bd
       -0.11746895 0.19593626 -0.14962035 -0.059706476
000320 3e e0 9d 3d 53 7a 4c 3e d6 1b 41 3e 52 4e f3 3c
       0.077087864 0.19968538 0.18858275 0.029700432
000330 c8 65 68 3d 69 5f b9 bc ef 64 a4 bd 1d 94 d5 bd
       0.05673769 -0.022628503 -0.08027064 -0.10428641
000340 39 17 72 be c3 03 af 3d 5a 8f 5f 3b 47 f9 15 bd
       -0.23641671 0.08545639 0.0034112544 -0.036614683
000350 b7 fd ae 3d df e4 0f 3d de 5c cc 3d 3a b6 63 3e
       0.08544486 0.035130378 0.099786505 0.22237483
000360 16 cc c6 bd 45 d6 29 3e 6c fe 80 bd 8f 03 5a 3d
       -0.09706895 0.16585644 -0.06298527 0.05322605
000370 70 cb 6b 3e d9 92 2c 3e 46 7d 45 be 72 a7 14 be
       0.23026824 0.16852893 -0.1928607 -0.14517
000380 78 45 fa bd 93 86 ef bb 73 4b 93 3e 0b 35 4b 3e
       -0.12220281 -0.0073097437 0.287685 0.19844453
000390 b1 de 25 bd e1 30 04 3e b8 84 82 3e d6 7c 03 be
       -0.04049558 0.12909271 0.2549188 -0.1284059
0003a0 b6 c7 1b 3d 93 a9 3d be 46 f0 2d 3e 7d 5b d0 3d
       0.038032256 -0.18521719 0.16986188 0.101737
0003b0 7a 1b 3c be 6a 0f 4c 3e 50 7f a7 bd 39 5c 16 be
       -0.18369856 0.19927755 -0.0817858 -0.14683618
0003c0 e1 f2 52 3d 4a 2d 1c 3e 1d 03 40 bd 73 95 b3 be
       0.05150116 0.15251651 -0.04687797 -0.35074958
0003d0 58 e6 a0 3a 23 7b 86 be 90 09 70 3c a8 97 90 be
       0.0012275679 -0.2626582 0.014650717 -0.28240705
0003e0 bd a0 ac 3d 1b 7f a3 3a 72 35 8e bd b8 39 63 3d
       0.08429096 0.0012473793 -0.06943788 0.055474967
0003f0 94 68 34 3c d8 5a d0 3c 37 f9 7d 3d 44 69 b3 bc
       0.0110112615 0.025433943 0.062005248 -0.02190078

lstm.bias_ih_l0 f4 [128]
000000 05 f3 74 be 47 81 28 3e 78 87 d4 bc 36 14 24 bd
       -0.2392083 0.16455565 -0.025943503 -0.040058337
000010 db 50 63 3d 76 d8 ac 3d 62 23 38 be 5e 93 84 3e
       0.05549703 0.08439724 -0.17982247 0.25893682
000020 13 5e 0b 3b db 1d e4 3d e7 08 e6 bd ef 41 1f 3e
       0.002126579 0.11138507 -0.11232167 0.15552495
000030 ff 2e a1 3e 06 b4 bf bc 78 ac c6 bd c1 8d c9 3e
       0.31481168 -0.023401272 -0.097008646 0.39365962
000040 15 4f 94 3e a8 db 80 3e 3a 7d 52 3e 64 32 91 bd
       0.28966585 0.25167584 0.20555583 -0.070896894
000050 a7 e8 8b 3e 0d b4 b0 3e f4 a0 f5 3c 0b 10 5e 3e
       0.27325937 0.34512368 0.029983975 0.21685807
000060 9f b0 60 3e 73 95 3d 3e 6f e8 ec be c1 fd 09 be
       0.21942376 0.18514042 -0.46271083 -0.13475706
000070 ad aa 6d 3e c2 52 d0 3c 36 1d 83 3d 8a 4f 71 3e
       0.23209639 0.025430087 0.06402056 0.23565498
000080 8e c8 24 bd 04 92 0c bd ac f5 04 3e bf 30 4a bd
       -0.040230326 -0.03431894 0.12984341 -0.049362894
000090 fd 7c 5c 3e e0 8c b5 bd 2e 07 51 3e f5 ad 15 3d
       0.21532054 -0.088647604 0.20412895 0.03654285
0000a0 6e 20 c6 bc 98 d3 d5 3d 8b d6 3a 3e 8e 66 c3 3c
       -0.024185386 0.10440749 0.18245904 0.023852613
0000b0 00 af 54 3e c4 93 eb 3d 55 49 2f 3e 57 e1 84 3e
       0.20769882 0.115027934 0.17117818 0.2595317
0000c0 bc 54 ea bd e1 81 f8 3d 40 6a 12 3c 7d 57 21 3e
       -0.11441943 0.121341474 0.008936465 0.1575603
0000d0 47 89 96 bd 62 ba 23 3d 22 00 34 bd 66 f9 f0 3d
       -0.07350402 0.03997267 -0.04394544 0.11766319
0000e0 e4 cb 5d 3e b0 22 15 3d e3 dd 7d 3c 43 6d e5 bc
       0.2165981 0.036410034 0.015494796 -0.028006202
0000f0 38 72 7b 3e c8 e5 2f 3e b0 93 c8 bd 52 bd b1 3d
       0.2455529 0.17177498 -0.09793794 0.08678688
000100 af e2 41 3d 0f 12 ad bd e4 dc 93 bd 56 14 54 3e
       0.047335323 -0.0845071 -0.07219866 0.20710883
000110 6e ec 66 3d 21 12 12 be 78 a1 1b be 83 87 e5 3c
       0.05637782 -0.14264728 -0.15198314 0.028018719
000120 c5 b0 0f 3e 34 3b 83 be 55 99 b7 3c a5 9d e6 3d
       0.14032276 -0.25631106 0.022411982 0.11260537
000130 f5 fa f1 bd 1d 0d 0c 3e 31 95 f6 bd 05 50 76 3e
       -0.118154444 0.13676877 -0.12040175 0.24053963
000140 92 1a 0d 3e c0 43 b9 3b f8 85 15 3d 50 99 35 be
       0.13779667 0.0056538284 0.036504716 -0.17734265
000150 4e d2 86 3e a3 6c 04 3e f2 08 be bc 55 9b 54 be
       0.26332325 0.12932067 -0.023197625 -0.2076238
000160 5c 64 21 3e 9e 98 2a be 55 76 d0 3d 0c 02 28 3d
       0.1576094 -0.16659781 0.1017882 0.041017577
000170 28 03 89 bd 12 8f 28 3c db 12 6a bd ef 75 92 bd
       -0.06690055 0.010288017 -0.05714689 -0.071514
000180 0d 2b b6 bd ad 3c 77 3d 21 2b 08 be 3e de bc 3d
       -0.0889493 0.0603606 -0.13297702 0.09222077
000190 40 02 00 3e ae d6 88 3d 39 0b a4 3d 49 86 63 3d
       0.12500858 0.06681572 0.08009953 0.055547986
0001a0 28 f6 e8 bd 73 14 e0 3d a2 7a 00 3e 51 1f 0d 3e
       -0.113750756 0.109414004 0.1254678 0.13781478
0001b0 6b 3a e1 bc ba a8 67 3e 55 34 3f 3e b9 7b a4 3c
       -0.027493676 0.22622958 0.18672307 0.020078527
0001c0 0d ad af bd 86 36 a0 3e c8 a6 57 be 53 2f 8d 3d
       -0.08577929 0.31291598 -0.21059716 0.06893792
0001d0 be da 6e 3e 29 ef e6 3d 53 be be 3a 49 11 3e bd
       0.23325631 0.11276085 0.0014552571 -0.046403203
0001e0 6f 49 07 be 02 b3 f6 bd 88 ef a8 3e c0 27 ea 3c
       -0.13211606 -0.12045862 0.32995248 0.028583407
0001f0 8b 89 21 be 7e 91 20 3d 70 c4 45 3e 6b 6a 8c 3e
       -0.15775125 0.039201252 0.19313216 0.2742494

lstm.bias_hh_l0 f4 [128]
000000 03 f1 2b be 87 83 fb bd 7e 9f 09 3e 3c 00 0f ba
       -0.16791157 -0.12280946 0.13439748 -0.0005455052
000010 41 ea 87 3e 2a ec 9b 3d 62 86 0e be 13 ff 7e 3e
       0.2654591 0.07613404 -0.1391845 0.2490199
000020 46 df 2b 3e e3 d6 61 bd bb 8e af bd 68 00 dc bd
       0.16784391 -0.055136573 -0.085721456 -0.10742265
000030 32 71 0b 3e 30 01 ad 3d 20 36 5c be 5d c6 f1 3e
       0.136174 0.08447492 -0.21505022 0.47221652
000040 d7 47 8f 3d 93 66 71 3c 53 22 62 b9 6a 99 56 be
       0.06996124 0.014733928 -0.00021565826 -0.2095696
000050 ff 18 a5 3e 09 7e c7 3e 96 ed a3 bd db 86 1e 3e
       0.32245633 0.38963345 -0.080043 0.15481131
000060 53 f9 0c 3e 45 0e 24 3d df 04 ec be 69 b5 b4 3d
       0.13766985 0.04005267 -0.46097466 0.08823664
000070 c2 27 74 3c d9 50 53 be 7f 3c c4 bd ba 52 1f 3e
       0.014902057 -0.2063631 -0.09581851 0.15558901
000080 d8 36 70 be a8 2a 65 bd af d5 ab 3d 42 a1 35 3e
       -0.23458421 -0.055948883 0.08390366 0.17737296
000090 8b 17 76 3e fe f2 ac bd 70 61 51 3e b0 dc 4e 3e
       0.24032418 -0.084447846 0.20447326 0.20201373
0000a0 56 8a bd 3d 48 3f 67 3e 47 a7 19 3e f9 00 30 3d
       0.09254901 0.22582734 0.15005217 0.042969678
0000b0 a2 35 e1 3c 09 d9 cc 3c 46 f9 b2 bd d6 a4 08 3d
       0.027491394 0.025005834 -0.087389514 0.033360325
0000c0 70 d3 62 ba 52 89 55 bd 32 5e fa 3d 87 76 42 3e
       -0.00086527225 -0.052132912 0.122249976 0.18990527
0000d0 ca 1c bc 3b d8 b3 bb 3d b0 e1 53 bd 72 de f6 3d
       0.0057407366 0.09165162 -0.051728904 0.12054147
0000e0 3e 32 ba 3d dc 96 c6 bd 8d 7a a2 3e 96 d6 e6 3d
       0.09091614 -0.09696743 0.31734124 0.11271398
0000f0 6e 26 34 3d 10 b5 77 3e 20 0b 1a bd ab c0 06 3d
       0.043981962 0.24190164 -0.037608266 0.032898586
000100 3a 24 82 3d ef d4 75 3d ab b0 96 3c bd ed 7d 3d
       0.06354566 0.060017522 0.018394789 0.061994303
000110 b8 9d e1 3d c4 5a bd bd 3d 43 ae 3d 29 20 00 be
       0.110164106 -0.09245828 0.085089184 -0.12512268
000120 b1 b2 0f 3e 08 c8 70 be 4d 76 a0 3d 27 49 75 bd
       0.14033009 -0.23513806 0.07835064 -0.059884217
000130 65 a7 1e 3c 07 9f 4b bd 33 17 f4 bd 04 66 07 3c
       0.009683465 -0.049712207 -0.119184874 0.0082640685
000140 aa b9 88 3d c1 a3 27 3e 89 c2 3d 3e d4 68 ac 3d
       0.066760376 0.16371061 0.1853124 0.08418432
000150 8d 97 a0 bd 3e 19 87 3d c9 df 32 be a8 61 98 3c
       -0.07841406 0.065966114 -0.1746818 0.018601254
000160 ed 22 be 3d 51 b0 fc 3d 27 ef 01 be 3e 84 9e 3d
       0.09284005 0.12338317 -0.12688886 0.07740067
000170 b0 96 40 3e 76 01 b5 3d 1f f9 c4 3d 0f eb bd bd
       0.18807483 0.08838169 0.096178286 -0.092733495
000180 a2 99 de 3b 05 e0 69 bd 7d 49 b3 3c 89 8f 00 3e
       0.006793217 -0.057098407 0.021885628 0.12554754
000190 c6 2a 06 bd 0e 8e 3c 3e 2e 15 0f be 6e 06 02 3c
       -0.032755636 0.18413565 -0.13972923 0.007936103
0001a0 14 f1 0b be 8f 15 e7 3d cd 06 12 3e c1 6c 26 3e
       -0.13666183 0.11283409 0.14260407 0.16252424
0001b0 68 02 69 bd 0a 2f 51 3e 21 98 16 3e 43 43 89 3e
       -0.05688706 0.204281 0.1470647 0.2680913
0001c0 8d 9c 11 be 24 ab 15 3e 05 9f 8b bd 58 2c 2c bd
       -0.14219876 0.14616066 -0.0681744 -0.042034477
0001d0 23 3d 06 bd e3 99 97 bc 71 65 c4 3d a7 9d 30 3e
       -0.03277315 -0.018505996 0.09589661 0.1724764
0001e0 f3 81 07 3d 45 ca 13 3e 8c 14 db 3e 2e db 8d bd
       0.033082914 0.14432628 0.42789114 -0.06926571
0001f0 03 b1 f9 3d 84 63 ee 3d 48 08 05 3c 30 db b5 bb
       0.121919654 0.11640075 0.00811965 -0.005549811

fc.weight f4 [1, 32]
000000 bb 79 3c bf e4 f6 a3 be ec 47 98 3e 49 43 5a bf
       -0.73623246 -0.320243 0.29742372 -0.8525892
000010 63 d8 c3 3e 4a ed 55 be d3 c4 f4 be 6b 27 89 be
       0.38251027 -0.208913 -0.47806415 -0.26787886
000020 62 5a e7 be fd b8 c7 be 8b 9d 88 bf 2c 61 61 3e
       -0.45186144 -0.39008322 -1.0673078 0.22009724
000030 a3 a1 b0 3e 25 ef 2a be 61 6c 1c bf 43 10 26 3e
       0.3449832 -0.16692789 -0.61102873 0.16217141
000040 93 a2 cd 3e 15 50 72 bf 0f 1f b8 3e 42 81 f0 be
       0.40163097 -0.94653445 0.35961196 -0.46973616
000050 60 f4 70 3e 0f 0f 71 3e 22 c1 c6 3e e5 ee b0 be
       0.23530722 0.235409 0.38819224 -0.34557262
000060 33 08 9f 3e 3d 92 51 be ab 15 6e 3f ab 5f a2 3e
       0.31060943 -0.20465942 0.9300181 0.31713614
000070 e7 da a0 be 98 d0 a9 be b7 67 06 bf 7f 20 5f 3e
       -0.3141701 -0.33166957 -0.52502006 0.2178974
